protonet_score/prototype_model_method.pth (torch, 36591 bytes, 38 tensors)

weight f4 [20, 17]
0	0xbc5d0c81	-0.013491751
1	0x3dc27e03	0.09496691
2	0xbd8c01a9	-0.06836254
3	0xbe0b3d32	-0.13597563
4	0xbda22d65	-0.079188146
5	0x3ca455b1	0.020060392
6	0x3db31189	0.08743579
7	0x3d85b5d0	0.065288186
8	0x3e121899	0.14267196
9	0xbdd2fc5b	-0.10302039
10	0x3e74c3ab	0.23902766
11	0xbdd65940	-0.10466242
12	0x3e6f346c	0.23359841
13	0xbd144740	-0.03620076
14	0x3e280a2b	0.16410129
15	0xbc02259c	-0.007943537
16	0xbe219e5e	-0.15783069
17	0x3e4838ce	0.1955292
18	0x3da1ea8e	0.07906066
19	0x3daf20a4	0.085511476
20	0xbd6c2e83	-0.057661545
21	0xbd831db8	-0.06402153
22	0xbca1b77d	-0.019740814
23	0x3cfcb2d0	0.030846983
24	0x3e4b6139	0.19861306
25	0xbe73eb4d	-0.23820229
26	0x3e0484a1	0.12941219
27	0xbd8afa4f	-0.06786024
28	0x3db518f2	0.088426486
29	0xbce7673b	-0.028247466
30	0x3d4f715b	0.050645214
31	0xbdfe8927	-0.124285035
32	0xbe322625	-0.17397363
33	0xbe209bf7	-0.15684496
34	0x3de32653	0.11091294
35	0x3e602831	0.21890332
36	0xbdaf00b5	-0.08545057
37	0x3d6e7161	0.058213595
38	0x3e6fe362	0.23426583
39	0xbe1b19d7	-0.15146576
40	0x3e14249f	0.14467095
41	0xbdcf851c	-0.101328105
42	0x3e0a4817	0.13504063
43	0x3d85666a	0.065136746
44	0xbb01b02f	-0.0019788851
45	0xbe6d38b4	-0.23166162
46	0xbd750359	-0.059817646
47	0x3dabd82f	0.08390843
48	0x3e82f406	0.255768
49	0xbda8447e	-0.08216189
50	0x3dbc234d	0.091864206
51	0x3d732a36	0.059366427
52	0x3e81a3c1	0.25320247
53	0xbc024adf	-0.007952421
54	0xbd5894bf	-0.05287623
55	0x3e900755	0.28130594
56	0xbe73a350	-0.23792768
57	0x3e8e7651	0.27824643
58	0x3dd5a533	0.104319
59	0xbe894691	-0.2681165
60	0x3cdec947	0.027195586
61	0xbd885c89	-0.06658275
62	0xbe3aded1	-0.1824906
63	0xbdff8c6a	-0.12477954
64	0xbe08587d	-0.13315006
65	0xbe454cc4	-0.19267565
66	0x3da9c590	0.08289635
67	0xbe0dc862	-0.13845971
68	0xbe6be4a9	-0.23036446
69	0x3de794e6	0.11307697
70	0x3cf8ca83	0.030370003
71	0x3d1d5b79	0.038417313
72	0xbdf7cd92	-0.12099756
73	0x3dd98a6c	0.10622105
74	0x3e3e4296	0.18580088
75	0x3d979209	0.07400901
76	0xbe7dc6fa	-0.24782935
77	0xbe49f80b	-0.19723527
78	0x3ccf2274	0.025284983
79	0xbe10ad64	-0.14128643
80	0xbe2f4192	-0.17114857
81	0x3d825176	0.06363194
82	0x3e57a37c	0.21058458
83	0x3d38ec71	0.045147363
84	0xbde174c2	-0.11008598
85	0x3e57a2a2	0.21058133
86	0x3da837a6	0.08213739
87	0x3e5df66a	0.21676031
88	0xbe183c92	-0.14866856
89	0x3d1cfcba	0.038326956
90	0xbd9a2725	-0.075269975
91	0xbe4acfd5	-0.19805844
92	0x3e4bbf22	0.1989713
93	0x3d4e8244	0.0504172
94	0xbddeeccf	-0.108850114
95	0x3e3f668b	0.18691461
96	0xbd94ecd7	-0.07271736
97	0x3d86f278	0.06589216
98	0x3ce2f603	0.027705198
99	0xbe584ab3	-0.21122245
100	0xbe23c25f	-0.15992115
101	0xbe29243c	-0.16517729
102	0x3d68cc37	0.05683538
103	0xbe68ff07	-0.22753535
104	0xbe20e7ec	-0.15713471
105	0x3e3e453b	0.18581097
106	0x3c2e65b0	0.010644361
107	0x3df56406	0.119819686
108	0x3c865a52	0.01640049
109	0x3dde11ef	0.10843264
110	0x3e2b12b0	0.16706347
111	0x3dc3e4b3	0.09565105
112	0xbd03e5fa	-0.032201745
113	0xbe0b2a49	-0.1359035
114	0x3dd81952	0.105517045
115	0x3e623714	0.22091323
116	0x3e3b3cb8	0.18284881
117	0x3dd1fcb9	0.10253281
118	0x3d3faa6b	0.046793383
119	0xbe001f9a	-0.12512055
120	0x3a7d2ac2	0.00096575555
121	0xbdb95d81	-0.090510376
122	0xbe2a6da8	-0.16643393
123	0x3d69a325	0.057040352
124	0x3e25e48b	0.16200463
125	0x3e177b3f	0.14793108
126	0xbe0fc6b3	-0.14040641
127	0x3e251570	0.16121459
128	0xbe1d3fef	-0.1535642
129	0x3b302d83	0.0026882596
130	0xbdcc97b1	-0.0998987
131	0x3e4f3ebc	0.20238775
132	0x3cd934de	0.026514467
133	0x3e4040be	0.18774697
134	0x3cd40843	0.025882846
135	0x3e14b13c	0.14520735
136	0xbd80d761	-0.0629108
137	0x3e21c441	0.15797521
138	0x3d964d3e	0.073389515
139	0x3dae461c	0.08509466
140	0x3d42b24b	0.047533315
141	0x3e45e2c4	0.19324785
142	0xbe156056	-0.1458753
143	0xbe897336	-0.2684571
144	0xbdca4f04	-0.09878352
145	0x3cb00154	0.021485008
146	0xbe1bb64f	-0.15206264
147	0x3dad5c37	0.08464854
148	0xbd1eda19	-0.038782213
149	0xbddb4fde	-0.10708593
150	0xbd148847	-0.036262777
151	0xbde24ceb	-0.11049827
152	0xbdd7389c	-0.10508844
153	0xbd2dbaf5	-0.042414624
154	0x3e286f0f	0.16448615
155	0x3e018b2a	0.12650743
156	0xbdb0297e	-0.08601664
157	0xbe459b8f	-0.19297622
158	0xbe129c3b	-0.1431741
159	0x3e313ab1	0.17307545
160	0xbe294454	-0.16529971
161	0xbbf950d0	-0.0076085106
162	0x3c059431	0.008153007
163	0x3d02e93e	0.03196072
164	0x3cf158ba	0.029461253
165	0xbe58d59c	-0.21175236
166	0x3dcc4952	0.09974922
167	0xbe1d978c	-0.15389842
168	0x3e2a5abd	0.16636176
169	0x3e6a47e1	0.22878982
170	0xbe0bef0d	-0.1366541
171	0x3e6ffdbe	0.23436639
172	0xbe88d8d6	-0.26727933
173	0x3e0b2779	0.13589276
174	0xbe20e78c	-0.15713328
175	0x3e0f6f02	0.1400719
176	0x3e636dea	0.22209898
177	0x3d8d30cc	0.06894073
178	0x3e4ba12f	0.19885705
179	0xbda666f7	-0.08125108
180	0xbda67e1c	-0.08129522
181	0x3d4d279a	0.050086595
182	0xbdd47f99	-0.103759
183	0x3e13a849	0.14419664
184	0x3d810811	0.06300367
185	0xbe6236e2	-0.22091249
186	0xbe25f416	-0.16206393
187	0xbe28f70b	-0.1650049
188	0x3e6edf4f	0.23327373
189	0xbda8ccbd	-0.08242176
190	0x3e47310f	0.19452308
191	0xbbb93ac3	-0.005652757
192	0x3e4575b5	0.19283183
193	0xbdcafd1a	-0.099115565
194	0xbe779051	-0.24176146
195	0x3d7785be	0.06043028
196	0x3da1e1b8	0.079043806
197	0xbddb2a85	-0.10701469
198	0xbd961e4d	-0.07329998
199	0xbe4c6a40	-0.19962406
200	0xbe7fdd15	-0.2498668
201	0x3e2c16c7	0.16805564
202	0x3e81ae72	0.25328404
203	0x3d8b78b1	0.068101294
204	0xbcbe5ab5	-0.023236612
205	0xbdb02b33	-0.086019896
206	0xbde6a615	-0.112621464
207	0xbdecf02a	-0.11569245
208	0xbdb5f3df	-0.08884405
209	0x3e1be765	0.15224989
210	0x3de336dc	0.11094448
211	0xbdcd9f58	-0.10040158
212	0x3e491538	0.19637
213	0xbe0adf45	-0.13561733
214	0xbe870ddc	-0.2637776
215	0x3df06407	0.11737829
216	0xbe2627f8	-0.16226184
217	0xbd9ab847	-0.07554679
218	0xbbcf352a	-0.0063234763
219	0xbdc001c0	-0.09375334
220	0x3e287bac	0.16453427
221	0xbe6417c5	-0.22274692
222	0xbe204bec	-0.15653962
223	0xbe1c75de	-0.15279338
224	0xbe689421	-0.22712757
225	0x3d44e3b1	0.048068706
226	0x3e341006	0.17584237
227	0xbd1f893a	-0.03894923
228	0xbe5efc25	-0.21775873
229	0x3e42a594	0.19008476
230	0x3e1a2085	0.15051468
231	0x3e5aa076	0.21350273
232	0xbd94509f	-0.0724194
233	0x3c514e29	0.0127749825
234	0x3cfebd8b	0.03109624
235	0xbe514126	-0.20435008
236	0x3e45c800	0.19314575
237	0x3e7c1a59	0.24619426
238	0xbe032a8f	-0.12809204
239	0x3d29fa3a	0.0414984
240	0x3e1d1d7f	0.15343283
241	0xbe0556fd	-0.13021465
242	0x3e78f3c2	0.24311736
243	0xbe57d2c7	-0.21076499
244	0xbe0e5db8	-0.13902938
245	0x3df54f36	0.11977999
246	0x3d98a25a	0.07452841
247	0xbcd066cf	-0.025439648
248	0xbcca38a7	-0.024685217
249	0x3d956528	0.07294685
250	0x3d976d3d	0.073938824
251	0x3dcd4777	0.100233965
252	0x3dd8f600	0.10593796
253	0x3e4f5491	0.20247103
254	0x3c8576ec	0.016292058
255	0x3e128cb5	0.14311488

bias f4 [20]
0	0x3e1c9158	0.15289819
1	0x3e606dc3	0.21916871
2	0xbe552245	-0.20813854
3	0x3e034509	0.12819304
4	0x3ddf0387	0.10889345
5	0xbe16d70a	-0.14730468
6	0x3e155d65	0.14586408
7	0xbe106ff0	-0.14105201
8	0x3d2f3bce	0.042781644
9	0xbe111d8f	-0.14171432
10	0x3e507196	0.2035583
11	0xbe36f0c5	-0.17865284
12	0xbe4112db	-0.18854849
13	0x3e013afb	0.12620156
14	0xbde7426e	-0.11291967
15	0xbdf07606	-0.11741261
16	0x3e82105b	0.25403103
17	0x3d2d75dc	0.042348728
18	0x3e0402d9	0.12891711
19	0x3e05cec7	0.1306716

weight f4 [12, 20]
0	0x3d0f6411	0.03500754
1	0x3e27e1cf	0.16394733
2	0xbd4ab502	-0.04948903
3	0xbdc2f32d	-0.09519038
4	0xbe40d2d6	-0.18830428
5	0x3bd9b875	0.0066443034
6	0xbe3ffa03	-0.18747716
7	0xbe3f8938	-0.18704689
8	0x3e256c51	0.161546
9	0x3da469c7	0.08027988
10	0xbe874662	-0.26420885
11	0xbd881cee	-0.06646143
12	0x3c7bd647	0.015370912
13	0x3d8b58ab	0.068040214
14	0x3acd0efe	0.0015644727
15	0xbe4d5ce3	-0.20054965
16	0x3e0624e0	0.13100004
17	0xbd2aeaaf	-0.041727718
18	0x3daa3017	0.08309954
19	0x3e36d76c	0.17855614
20	0xbe236c3e	-0.1595926
21	0xbd70660b	-0.058691066
22	0xbe07ae42	-0.13250068
23	0x3e01a55f	0.1266074
24	0x3e517914	0.20456344
25	0xbdd2189d	-0.10258601
26	0x3e073ee1	0.1320758
27	0x3e2eadfd	0.17058559
28	0xbd828e9f	-0.06374859
29	0x3ce9aa1a	0.028523494
30	0xbd96c182	-0.073611274
31	0xbe55d090	-0.20880342
32	0x3ce11fa1	0.027480902
33	0x3e19e0f7	0.15027224
34	0xbccce893	-0.025013244
35	0xbe429bab	-0.19004695
36	0xbe10ec23	-0.14152579
37	0x3e0211b7	0.1270207
38	0xbe28fd1a	-0.165028
39	0x3d30513c	0.04304622
40	0x3d0acb3d	0.03388523
41	0xbd5d3742	-0.054007776
42	0xbe00c5dd	-0.12575479
43	0xbe6f341b	-0.2335972
44	0xbe52bca9	-0.2057978
45	0x3db0592e	0.0861076
46	0xbe1db32c	-0.1540038
47	0xbdf8beb6	-0.1214575
48	0x3e49d1a0	0.19708872
49	0xbdadd617	-0.084881
50	0xbddd41ee	-0.10803591
51	0x3d090096	0.033447824
52	0xbd0bb495	-0.034107763
53	0xbd98b2ef	-0.07456004
54	0x3d481d9d	0.048856366
55	0xbdae71ea	-0.08517821
56	0xbdda012a	-0.10644753
57	0xbdd81a4d	-0.105518915
58	0x3c6121d5	0.013740976
59	0x3da39c17	0.07988756
60	0xbc874b7e	-0.01651549
61	0xbd92f3d7	-0.07175415
62	0x3d632854	0.05545838
63	0xbe0ab6f6	-0.13546357
64	0xbde34588	-0.110972464
65	0x3dd3186a	0.10307391
66	0xbd0f158f	-0.03493267
67	0xbd679912	-0.056542464
68	0x3e2223bf	0.15833949
69	0xbc5fd0df	-0.013660639
70	0x3ca96106	0.020676147
71	0x3bf2964b	0.00740317
72	0xbc799c08	-0.015234955
73	0xbd26c624	-0.040716305
74	0x3e06c5ed	0.1316144
75	0xbb6f9995	-0.0036560048
76	0xbe4b1d47	-0.19835387
77	0xbddb13ab	-0.10697111
78	0xbe078a46	-0.13236341
79	0x3d82e5e9	0.06391508
80	0xbca6d13d	-0.020363444
81	0x3de60993	0.11232295
82	0xba39f1e2	-0.0007093233
83	0xbe388017	-0.18017612
84	0x3dafb0f7	0.08578675
85	0x3c7f2c7e	0.015574573
86	0x3ca93c91	0.020658763
87	0xbe450207	-0.19239055
88	0xbc29bdd2	-0.010360198
89	0xbe170c0e	-0.14750692
90	0xbdd70cb1	-0.105004676
91	0xbd80de77	-0.06292432
92	0xbbf9c774	-0.0076226536
93	0x3d99c75a	0.075087264
94	0x3dc30e5b	0.095242225
95	0xbe66648e	-0.22499296
96	0xbdba9481	-0.09110356
97	0xbd5fa918	-0.05460462
98	0xbd5a64da	-0.053318836
99	0xbe082d71	-0.13298585
100	0xba743144	-0.00093152025
101	0x3d8a9c1b	0.06768056
102	0xbdca8c7d	-0.09890077
103	0xbca6a475	-0.020342091
104	0x3df59aa1	0.11992384
105	0xbdc5123e	-0.0962262
106	0xbc9518d9	-0.018200325
107	0xbe0b3731	-0.13595273
108	0xbe2033f9	-0.15644826
109	0xbd0e7d83	-0.034787666
110	0xbd3e402b	-0.046447914
111	0x3d54fae8	0.051997095
112	0x3e562600	0.20912933
113	0x3c1cca3e	0.009569703
114	0x3d84691e	0.06465362
115	0x3e5585bb	0.20851795
116	0x3dd892bc	0.10574862
117	0x3d52512c	0.051346943
118	0xbdae881d	-0.08522055
119	0xbde009bc	-0.10939357
120	0x3e3bceb9	0.18340577
121	0x3cb0e31c	0.02159267
122	0x3e413372	0.18867281
123	0x3e21b146	0.1579028
124	0xbd596afd	-0.053080548
125	0xbe16dc31	-0.14732434
126	0x3d91ca40	0.07118654
127	0xbe309808	-0.17245495
128	0x3e15e079	0.14636411
129	0xbdcdd9c7	-0.10051303
130	0x3d47cade	0.048777454
131	0x3e2b8e9b	0.16753618
132	0x3e30ea7f	0.17276953
133	0x3df16a22	0.11787821
134	0x3e4a786d	0.19772501
135	0x3e6e5f15	0.23278458
136	0xbcce2398	-0.025163457
137	0xbe3bb0b1	-0.18329121
138	0xbe329a59	-0.17441691
139	0x3d73e656	0.059545837
140	0xbe20fbc6	-0.15721044
141	0xbde1e6ff	-0.11030387
142	0x3ddbba7f	0.10728931
143	0xbe7305da	-0.23732701
144	0xbe1ec5b6	-0.15505108
145	0x3e3252f8	0.17414463
146	0x3c8e5ac5	0.017377267
147	0x3d785626	0.060629033
148	0xbdb15a83	-0.08659842
149	0xbe66ec32	-0.22551039
150	0x3e31eb53	0.17374925
151	0xbe3a03a9	-0.18165459
152	0x3e3e7107	0.18597804
153	0x3dafb517	0.08579462
154	0xbd7b81ae	-0.06140297
155	0x3d68aea1	0.056807164
156	0xbdc9fa62	-0.0986221
157	0xbe873dff	-0.26414487
158	0xbe72f22e	-0.23725197
159	0xbdeac644	-0.114635974
160	0x3e1c1fbb	0.15246479
161	0x3dfeb1cc	0.12436256
162	0xbe474ab1	-0.19462086
163	0x3d2fc7be	0.0429151
164	0x3e30b622	0.17256978
165	0xbe170e8f	-0.14751647
166	0x3d91e158	0.07123059
167	0x3dc06529	0.09394295
168	0x3e005e0f	0.1253588
169	0x3e841dcb	0.2580398
170	0x3dba6443	0.09101155
171	0xbe294e13	-0.16533689
172	0x3e6cacf2	0.23112848
173	0x3cbfb8ea	0.023403604
174	0xbd386dd3	-0.04502661
175	0xbe137d3f	-0.14403246
176	0x3b6a6107	0.00357634
177	0x3df16334	0.117864996
178	0x3c25c053	0.010116654
179	0x3e090b1e	0.13383147
180	0x3e0329b2	0.12808874
181	0xbe371c18	-0.1788181
182	0x3e65ff99	0.22460784
183	0xbd615fc9	-0.05502299
184	0x3dca8455	0.098885216
185	0x3e00bf10	0.12572885
186	0xbdc26ddf	-0.094936125
187	0xbdafa885	-0.085770644
188	0x3e02a7f5	0.12759383
189	0xbe00ad6a	-0.12566152
190	0xbe011536	-0.12605748
191	0x3d454c0e	0.048168235
192	0xbe20a131	-0.1568649
193	0xbe31e48d	-0.17372341
194	0xbe2c3107	-0.16815577
195	0x3db2a7d4	0.08723417
196	0x3e22b61e	0.15889785
197	0xbdf18ab4	-0.11794034
198	0xbe54479e	-0.20730445
199	0xbc7dac9b	-0.015483047
200	0x3deef5d9	0.116679855
201	0xbd6cda0c	-0.057825133
202	0xbc24f188	-0.010067351
203	0xbd348496	-0.044071756
204	0xbc9b02ff	-0.018922327
205	0xbdc1aca4	-0.09456757
206	0x3cf58ee4	0.029975362
207	0xbe79a815	-0.24380524
208	0xbc210652	-0.009828167
209	0x3d46632e	0.04843443
210	0x3e560e6e	0.20903942
211	0x3e4db46f	0.20088361
212	0xbe27db07	-0.16392146
213	0xbddbb074	-0.10727015
214	0x3d8e58b3	0.06950512
215	0x3d8d0fda	0.06887789
216	0xbe30d9f0	-0.17270637
217	0x3cec37ff	0.028835295
218	0xbe1619bd	-0.14658256
219	0x3e47936e	0.19489834
220	0xbcf53917	-0.02993445
221	0xbe5f6c62	-0.21818689
222	0xbe2e27b2	-0.1700733
223	0xbe5aaab9	-0.21354188
224	0xbdcaacf8	-0.098962724
225	0x3d6ab35d	0.05729996
226	0xbd386a14	-0.04502304
227	0x3d8c1f39	0.06841893
228	0xbd53a362	-0.051669486
229	0x3b949199	0.004533958
230	0xbd0dc2a4	-0.034609452
231	0xbd86f81d	-0.065902926
232	0x3cb57ebc	0.022155158
233	0xbe55c862	-0.20877221
234	0xbceb4920	-0.028721392
235	0x3cf8551c	0.03031402
236	0xbe1ae284	-0.15125471
237	0xbe66f32b	-0.22553699
238	0x3e19e881	0.150301
239	0xbdcd48fa	-0.10023685

bias f4 [12]
0	0xbe0057db	-0.12533514
1	0xbd130d3f	-0.035901304
2	0xbd24f0e0	-0.04026878
3	0xbe0b4c8c	-0.13603419
4	0x3e099363	0.1343513
5	0xbe637bcf	-0.22215198
6	0x3e57b9a4	0.2106691
7	0x3d344686	0.04401257
8	0x3d7f42bd	0.062319506
9	0x3e78627a	0.24256316
10	0xbe74780b	-0.23873918
11	0xbb9cd119	-0.0047856686

weight f4 [6, 12]
0	0x3bcb020f	0.0061953138
1	0xbc9068a3	-0.01762802
2	0x3c87042a	0.016481478
3	0xbdb2bf89	-0.08727939
4	0xbdc17d01	-0.09447671
5	0xbdcf3cbe	-0.101190075
6	0x3e7871a9	0.24262108
7	0x3e4b9ee4	0.1988483
8	0x3dfd1061	0.1235664
9	0x3c126f40	0.008937657
10	0x3d56122e	0.05226343
11	0x3d882ca9	0.06649143
12	0x3d839782	0.06425382
13	0x3c4ae4a2	0.012383612
14	0x364c2996	3.0422575e-06
15	0xbd908e16	-0.07058351
16	0x3da27b6b	0.07933696
17	0x3834e551	4.312891e-05
18	0xbd8696e3	-0.06571748
19	0x3c56ad36	0.01310282
20	0xbe0d74b4	-0.1381405
21	0xb5e5154a	-1.7068025e-06
22	0x3adfa3f2	0.0017062409
23	0xbd759988	-0.059960872
24	0xbd93953b	-0.07206198
25	0x3db26589	0.087107725
26	0xb7970b27	-1.8005796e-05
27	0xbabb064d	-0.0014268846
28	0x3d6befac	0.057601616
29	0xbda77f21	-0.08178545
30	0x3b4add64	0.0030954713
31	0xb8abdc58	-8.1949576e-05
32	0xbe0c9e29	-0.13732208
33	0xbd848629	-0.064709015
34	0xbdbc6ab8	-0.092000425
35	0x3d9ea79d	0.077468134
36	0xbe2b2741	-0.16714193
37	0xbdb9cbdb	-0.090720855
38	0x3e89c805	0.26910415
39	0xbd956853	-0.07295289
40	0x3e814c8b	0.2525371
41	0xbe27a9e7	-0.16373406
42	0x3d72390d	0.05913644
43	0x3e7b8676	0.24563012
44	0x3da2c8a6	0.07948427
45	0xbde7b9d4	-0.11314741
46	0x3e520076	0.20507988
47	0xbdd1e3c7	-0.10248523
48	0x3e6bc5d5	0.23024686
49	0xbdb44746	-0.08802657
50	0xbe919ceb	-0.2844003
51	0x3e57caff	0.2107353
52	0x3e7a36c2	0.24434951
53	0x3e8c4670	0.2739749
54	0x3cc9ebdd	0.024648601
55	0xbd2ec9da	-0.04267297
56	0x3e00e7ca	0.1258842
57	0xbc155eac	-0.00911681
58	0x3e7ef4b1	0.2489803
59	0xbe9b2c75	-0.30307356
60	0x3e6d75db	0.2318949
61	0xbe16bbe4	-0.14720112
62	0x3d0f01d2	0.034913845
63	0xbe3a5654	-0.18196994
64	0x3e3b7672	0.18306902
65	0xbe4da8ea	-0.20083967
66	0x3e80763e	0.25090212
67	0xbe1daa96	-0.15397105
68	0x3e3d5374	0.18488866
69	0x3e39cd83	0.18144803
70	0xbe66732d	-0.22504874
71	0xbe399df4	-0.1812666

bias f4 [6]
0	0x3e8916a7	0.26775095
1	0xbe15d30a	-0.14631286
2	0xbc9a51ac	-0.018837772
3	0xbc0bb44b	-0.008526872
4	0x3d88d69e	0.0668156
5	0xbbf0b98b	-0.007346337

weight f4 [2, 6]
0	0x3e9305b7	0.28715298
1	0xbe0d314c	-0.13788337
2	0xbdb9149f	-0.09037136
3	0xbd82768a	-0.06370266
4	0xbe9438e7	-0.28949663
5	0xbce378f1	-0.02776763
6	0xbe8ff46c	-0.28116167
7	0x3c4c4dfc	0.012469765
8	0xbdf01a5b	-0.11723777
9	0x3e2994c4	0.16560656
10	0xbea7e2f5	-0.32790342
11	0xbdb6c88d	-0.08924971

bias f4 [2]
0	0xbe9cd203	-0.30628976
1	0x3e6f48df	0.23367642

weight f4 [6, 2]
0	0x3e0b8ab3	0.13627128
1	0x3e8351cb	0.2564834
2	0xbf1a5d00	-0.60298157
3	0xbf10914b	-0.564717
4	0xbf2f5e62	-0.6850339
5	0xbf02c4a9	-0.5108133
6	0x3f042639	0.51620823
7	0x3e313aa8	0.17307532
8	0x3e524cec	0.20537156
9	0x3ddf6627	0.10908156
10	0x3ea9ac7f	0.33139417
11	0xbeb0f6a2	-0.34563166

bias f4 [6]
0	0x3ba2684f	0.004956282
1	0xbeb2b331	-0.34902337
2	0x3e121431	0.14265515
3	0xb574388e	-9.097938e-07
4	0x3edb0cd6	0.4278323
5	0xbd6f94e8	-0.058491617

weight f4 [12, 6]
0	0xbc6d6491	-0.014489309
1	0x3e04a1a7	0.1295229
2	0xbdbfba86	-0.093617484
3	0xbd96552f	-0.07340466
4	0x3daa6c82	0.083214775
5	0xbe33d0d7	-0.17560135
6	0x3da29365	0.079382695
7	0xb8462eae	-4.7250353e-05
8	0xbd5caf74	-0.053878263
9	0x3d3607fc	0.04444121
10	0x3e24201a	0.16027871
11	0x3cf34f49	0.029700892
12	0xbedd8841	-0.43268016
13	0xbe3b23d5	-0.18275388
14	0x3e6c4a89	0.23075308
15	0xb6e21a08	-6.7383553e-06
16	0x3e4e0d09	0.2012216
17	0x3e936c88	0.2879374
18	0xbe219f9d	-0.15783544
19	0xbddec812	-0.10878004
20	0x3da2cd97	0.079493694
21	0xbc71f05a	-0.014766777
22	0xbde7b4d3	-0.11313786
23	0x3a46f8b4	0.000759016
24	0xbc37a953	-0.011209804
25	0xbae81ae3	-0.0017708208
26	0xbe1b4931	-0.15164639
27	0x3e0713e8	0.13191187
28	0xbb43f2ae	-0.0029899287
29	0xbe4beecf	-0.19915317
30	0x3e4c57a5	0.19955309
31	0xbe826c3a	-0.25473195
32	0x3e5d9bbf	0.21641444
33	0xbe815368	-0.25258946
34	0x3eb44143	0.3520604
35	0x3ec3e6be	0.3826198
36	0xbe2afb64	-0.1669746
37	0xbcc75e98	-0.024337098
38	0x3752a398	1.2555065e-05
39	0xbe772dfd	-0.24138637
40	0xbd67a48c	-0.05655341
41	0xbe83c0e8	-0.25733113
42	0xbe10646e	-0.14100811
43	0x3dffc4aa	0.124886826
44	0x3e9f8561	0.31156448
45	0xbb54eda0	-0.0032490268
46	0x3e51a79c	0.20474094
47	0x3e94c041	0.29052928
48	0x3cee8de8	0.0291204
49	0x3d9780ec	0.07397637
50	0x3ec2607b	0.37964234
51	0x3c9a0724	0.018802233
52	0x3e9859d8	0.29756045
53	0x3e3d54a4	0.18489319
54	0xbe41ac05	-0.18913276
55	0x3e8b7122	0.2723475
56	0x3eac7e06	0.33689898
57	0x3e5c168e	0.21492979
58	0x3e62d130	0.22150111
59	0xbec04b77	-0.37557575
60	0xbd89312a	-0.066988304
61	0x3eaa2016	0.33227605
62	0x3dc210d8	0.09475869
63	0xbd88ebb1	-0.066855796
64	0xbb97f9b9	-0.0046379236
65	0x3ec7015d	0.38868228
66	0xbeb17a1c	-0.34663475
67	0xbdb6274f	-0.08894216
68	0x3e976d7c	0.29575717
69	0x3e67659b	0.22597353
70	0x3e9c95eb	0.30583128
71	0x3eb438c8	0.3519957

bias f4 [12]
0	0x3ec7b5f2	0.39006
1	0xbd8a411e	-0.06750701
2	0x3e035f74	0.12829381
3	0x3d71ef90	0.059066355
4	0xbe3fd645	-0.18734081
5	0x3e058861	0.13040306
6	0xbdc5bd4b	-0.096552454
7	0xbd9838ee	-0.074327335
8	0xbe7713a5	-0.24128588
9	0xbe11f805	-0.14254768
10	0x3e9c3df5	0.3051602
11	0x3ea5761c	0.32316673

weight f4 [20, 12]
0	0xbc84bb03	-0.016202455
1	0xb6b5bba4	-5.4160646e-06
2	0xbd13f960	-0.036126494
3	0xbc403ce4	-0.011733267
4	0xbd6b6069	-0.05746499
5	0xbc181792	-0.009282963
6	0x3d91fdaa	0.07128461
7	0x3e89bff6	0.26904267
8	0x3c9ec49a	0.019380856
9	0x3e33229f	0.17493676
10	0x3e03b09e	0.12860343
11	0xbe5ad2fc	-0.21369547
12	0x3638a799	2.7515691e-06
13	0xbca3d104	-0.019997127
14	0xbe04a51e	-0.12953612
15	0xbe0dab61	-0.13834907
16	0x3cec7412	0.02886394
17	0xbe10e228	-0.14148772
18	0xbd8843a9	-0.0665353
19	0xbe106b1e	-0.14103362
20	0x3c42d3b8	0.011891298
21	0xbd4a773d	-0.04943012
22	0xba59fec3	-0.00083158555
23	0xb79e9634	-1.8905012e-05
24	0xbe859354	-0.26088965
25	0x3dc11e93	0.0942966
26	0x3e4ff89c	0.2030968
27	0xbc8db734	-0.017299272
28	0x3d08c754	0.03339322
29	0x3d98c50d	0.074594595
30	0xbc1796e4	-0.009252284
31	0x3da83eb6	0.08215086
32	0x3ca12a0f	0.019673375
33	0xbd81c3cf	-0.06336176
34	0xbe4ec878	-0.2019366
35	0xbe832294	-0.2561232
36	0x3898d2c5	7.287184e-05
37	0x3785f613	1.5969423e-05
38	0xbbf9c062	-0.007621811
39	0xbaad714a	-0.0013232615
40	0x3db6c847	0.089249186
41	0xbafa790b	-0.001910956
42	0x3d853a89	0.06505305
43	0x3d6ba677	0.0575318
44	0xb8cf5b4f	-9.887537e-05
45	0xbe1594a5	-0.14607485
46	0xba8fd25e	-0.0010972728
47	0xbc129cb0	-0.00894849
48	0xbd0f36a6	-0.034964226
49	0xbd83adbc	-0.064296216
50	0x3e810ab4	0.25203478
51	0x3e8ef31e	0.2791986
52	0xbdd65a20	-0.10466409
53	0x3d860545	0.06543974
54	0x358ba5d3	1.0404568e-06
55	0xbdc3b279	-0.09555525
56	0x3e14307b	0.14471619
57	0xbe28c762	-0.16482309
58	0x3dd30bd3	0.1030499
59	0xbe052864	-0.13003689
60	0x38860947	6.391346e-05
61	0x3dd85abf	0.105641834
62	0xbd8e31dd	-0.069431044
63	0xbd08f791	-0.033439223
64	0xbd085da0	-0.033292413
65	0xbc3c5049	-0.011493751
66	0xb6c4d317	-5.8658293e-06
67	0xbc89b355	-0.016809145
68	0x349f7070	2.9697867e-07
69	0xb8d777de	-0.00010274326
70	0x379f55d4	1.8994244e-05
71	0xb9d87c9e	-0.00041291578
72	0x3d81139c	0.06302568
73	0xbe1de08d	-0.1541769
74	0x368061a3	3.8260637e-06
75	0xbda386e5	-0.079847135
76	0xb79bf69f	-1.8592282e-05
77	0xbdb4f62c	-0.08836016
78	0xbdc6c371	-0.09705246
79	0x3d06a61d	0.03287326
80	0x3c395764	0.011312339
81	0xbcafbecd	-0.021453286
82	0xbd2e63b3	-0.04257555
83	0x3abdf1ad	0.0014491581
84	0xbbc4ce99	-0.0060060737
85	0xbcda20f2	-0.026627038
86	0x3c9c2af1	0.019063445
87	0x3c189adf	0.009314268
88	0x3404fbe0	1.238509e-07
89	0xbd28e85e	-0.041237228
90	0xbd68f576	-0.056874715
91	0x3deab6eb	0.1146067
92	0x3bb546f9	0.0055321422
93	0xbd1069f8	-0.03525731
94	0xb79f7b58	-1.9011713e-05
95	0xbe025827	-0.1272894
96	0x3e12fc30	0.14354014
97	0xbd00a181	-0.031404022
98	0xb4250603	-1.536901e-07
99	0x3de215e5	0.11039332
100	0xbd62b815	-0.055351336
101	0x37396920	1.1051336e-05
102	0x3daa22f8	0.08307451
103	0x3dc5e6d1	0.09663165
104	0x3debde5e	0.115170226
105	0x3d0662a5	0.03280892
106	0xbdf1db5e	-0.11809419
107	0xb8137e32	-3.516506e-05
108	0x3daa11ea	0.08304198
109	0x37dc109c	2.6233778e-05
110	0xbe1e1ad9	-0.15439929
111	0xbd31c3c8	-0.043399602
112	0xbdfed12e	-0.124422416
113	0xbdbb28ec	-0.091386646
114	0x362c6281	2.5687334e-06
115	0xbd58ec5f	-0.052959796
116	0xbccd7430	-0.025079817
117	0x3c182b7f	0.009287714
118	0xbaade6af	-0.0013267602
119	0xb6967779	-4.484257e-06
120	0x3e01f174	0.12689763
121	0xbb06be3c	-0.0020560166
122	0xbe1c2ca0	-0.15251398
123	0x3e5178cc	0.20456237
124	0x37263546	9.906775e-06
125	0x3e92a2f3	0.28639945
126	0x39f0ba17	0.00045915015
127	0x3d89d3f3	0.06729879
128	0xbe4c488e	-0.19949552
129	0xbe8193bf	-0.25308034
130	0x3e431449	0.19050707
131	0xbdf69a47	-0.12041145
132	0xbe178eb4	-0.1480053
133	0xbde50bf3	-0.1118392
134	0x3e04a944	0.12955195
135	0x3e83dd2f	0.25754687
136	0x347ac34c	2.3354113e-07
137	0xbe714f5d	-0.23565431
138	0x36847200	3.947178e-06
139	0xbe896c7a	-0.26840574
140	0x3ddf6c58	0.10909337
141	0xbd13bd30	-0.036069095
142	0x3e1a45bf	0.15065669
143	0x3dd3d360	0.10343051
144	0xbc5a0f67	-0.013309336
145	0x3dc78568	0.09742242
146	0x3e47a7f2	0.1949766
147	0x3e635834	0.22201616
148	0xbd6db0e8	-0.05803004
149	0xbe7599a7	-0.23984395
150	0xbc8e0f69	-0.017341333
151	0xbe55b21c	-0.20868725
152	0x3e8f50a3	0.27991208
153	0x395d9c32	0.0002113439
154	0x3e79faa6	0.24412021
155	0x3e6ce6dc	0.23134941
156	0x3c456256	0.012047371
157	0xbdc2bd44	-0.09508756
158	0xbe063a82	-0.13108256
159	0xbe369471	-0.17830063
160	0xb69515c4	-4.44308e-06
161	0xbe80ad13	-0.25132045
162	0xb912716e	-0.00013965901
163	0xbde8ca26	-0.11366682
164	0x3da3b665	0.07993773
165	0x3dbb39d7	0.091418914
166	0x3e2e3bd1	0.17015006
167	0x3e0ebd99	0.13939513
168	0x3ea02642	0.31279188
169	0x3b877040	0.0041332543
170	0x3bd225f0	0.006413214
171	0xbcff1800	-0.031139374
172	0x3d069b01	0.032862667
173	0x3e5940df	0.21216153
174	0x371f6fc4	9.503161e-06
175	0x3e0eb7d3	0.13937311
176	0xbd41fe40	-0.047361612
177	0x3e711d7f	0.23546408
178	0xbc3bcd81	-0.01146257
179	0x3e4b32ee	0.19843647
180	0x3d3a83b3	0.045535754
181	0x3d9d6a8b	0.07686337
182	0x380f1502	3.4113422e-05
183	0xbd8a8f08	-0.06765562
184	0xb50e509e	-5.3016436e-07
185	0xbe16bbdb	-0.14720099
186	0xbd8ee600	-0.06977463
187	0x3d90a1f9	0.07062144
188	0xbdd6a418	-0.10480517
189	0x380371bf	3.1338768e-05
190	0xbdf074f4	-0.11741057
191	0x3602c316	1.9485065e-06
192	0xbe8668ba	-0.26251775
193	0xbdf21425	-0.118202485
194	0x3e437578	0.1908778
195	0xbe7df912	-0.24802044
196	0x38d6d01d	0.00010243079
197	0x3e2074be	0.15669534
198	0xbd46c4fc	-0.048527703
199	0x3de77131	0.113008864
200	0xbe596de1	-0.21233322
201	0x3c49630b	0.01229168
202	0x3e0f26fb	0.13979714
203	0x3e85a3c6	0.26101512
204	0xbe57e9b3	-0.21085243
205	0xbc09c707	-0.008409268
206	0x3e918c48	0.2842734
207	0x3e48bed5	0.19604047
208	0x3c1879bb	0.009306367
209	0xbe925d0a	-0.28586608
210	0x3dd7437d	0.10510919
211	0xbe85299a	-0.26008302
212	0xbd9dd130	-0.07705915
213	0x3ddfd9f2	0.10930242
214	0x3e19210d	0.14954014
215	0x3e12df1c	0.14342922
216	0x3dfefad0	0.124501824
217	0x3daa5d45	0.08318571
218	0x3e0891e5	0.13336904
219	0xbe8097e6	-0.2511589
220	0xb9b1479f	-0.00033813433
221	0xbe0f2220	-0.13977861
222	0x3c57e079	0.013176077
223	0x3e74f629	0.23922028
224	0xbe7aad8c	-0.24480265
225	0xbde497e0	-0.1116178
226	0xbe2e4329	-0.17017807
227	0xbe88eeae	-0.26744598
228	0xbe49ffee	-0.19726536
229	0x3e07d7b1	0.13265873
230	0xbe372202	-0.17884067
231	0x3d5d13fc	0.053974137
232	0x3d3f8247	0.0467551
233	0x3e0e5e17	0.1390308
234	0x3cf321d2	0.029679213
235	0x3c774b1a	0.015093589
236	0x3e895dbc	0.26829326
237	0x3e0cc25f	0.13746022
238	0x3d35dffc	0.04440306
239	0xbe37e347	-0.17957793

bias f4 [20]
0	0x3e6aafb0	0.22918582
1	0xbcf99de3	-0.030470794
2	0x3e2d83a4	0.16944748
3	0xbe05c841	-0.13064672
4	0x3e241b27	0.16025983
5	0xb7411d7c	-1.1510561e-05
6	0xbdeec61d	-0.11658881
7	0xbd87c17b	-0.066287
8	0xbe1a47d3	-0.15066461
9	0xbe0a5647	-0.13509475
10	0x3e28e679	0.16494168
11	0x3dbab30d	0.091161825
12	0x3e202c11	0.1564181
13	0x3e6d87cf	0.23196338
14	0xbc1f6296	-0.009728095
15	0xbe135c40	-0.1439066
16	0x3c3199c6	0.010839885
17	0x3cd9a7a3	0.026569193
18	0x3e60d0ce	0.21954653
19	0x3e7992c9	0.243724

weight f4 [17, 20]
0	0xbe18ee4a	-0.1493465
1	0xb3f10292	-1.12229046e-07
2	0x3e1f417c	0.15552324
3	0xbd76e483	-0.06027652
4	0x3df9257b	0.12165352
5	0x379d721f	1.8769e-05
6	0x3c23a6ac	0.009988468
7	0xbda9cf04	-0.08291438
8	0x36fe0c8e	7.5712514e-06
9	0x3d9183ad	0.07105193
10	0xbd7d412c	-0.06182973
11	0xbd844b79	-0.06459708
12	0x3e50d5d5	0.2039407
13	0xbe0580b1	-0.13037373
14	0xbe195892	-0.14975193
15	0xbc16c373	-0.009201872
16	0x3e216c5a	0.15763989
17	0xbadde755	-0.0016929904
18	0xbd9a0b12	-0.07521643
19	0xba110e61	-0.00055334537
20	0x3e6baa83	0.23014264
21	0x38d752ac	0.00010267398
22	0xbd5eacfb	-0.054364186
23	0x3c19aacc	0.0093791
24	0x3d0a9802	0.033836372
25	0x3598ce45	1.1384915e-06
26	0x370d91b8	8.438183e-06
27	0x3d84fe04	0.06493762
28	0x38ca51ba	9.647333e-05
29	0xbdbb9d65	-0.0916088
30	0x3e4f6f8c	0.20257396
31	0xbc9ee556	-0.019396465
32	0x3d8a8359	0.06763334
33	0x3d8c4191	0.06848443
34	0xbe1adbbb	-0.15122883
35	0x3b69ba0b	0.0035663869
36	0x3df36f9c	0.11886522
37	0xbe1c9cf2	-0.15294245
38	0x3d2d9333	0.04237671
39	0xbd3b2087	-0.045685317
40	0x3d835298	0.06412238
41	0x335f3120	5.1965912e-08
42	0x3de39844	0.11113027
43	0xbaca90da	-0.0015454546
44	0x3da3e73c	0.08003089
45	0x3c954ece	0.018226054
46	0x3d837992	0.06419672
47	0x3ab7706a	0.0013995294
48	0x353fb8e2	7.1422085e-07
49	0x3b66da01	0.0035225155
50	0x3e220e91	0.15825869
51	0xbc8ec4c7	-0.017427815
52	0x3e2fc0fc	0.17163461
53	0x3e53c22e	0.20679542
54	0x3e3bce60	0.18340445
55	0xbdc509d2	-0.09621014
56	0x3cf27c57	0.029600305
57	0x3d6a4fbf	0.057204958
58	0xbc444098	-0.011978291
59	0x3e423c84	0.18968397
60	0xbdcc9ff4	-0.09991446
61	0xb705aefc	-7.9681595e-06
62	0xbe49e56a	-0.19716421
63	0x3d7e76f6	0.06212517
64	0xbe296cf3	-0.16545467
65	0x3bb16d84	0.0054146666
66	0x3c57bd18	0.013167642
67	0x3ce1b3ea	0.02755161
68	0x3b9c36df	0.0047672833
69	0xbd86b9b6	-0.0657839
70	0xbc0d6933	-0.0086310385
71	0xbdf367c3	-0.11885025
72	0x3e4d0e5b	0.20025007
73	0xbca87907	-0.020565523
74	0x3bc08ce9	0.005876173
75	0x3cd2581b	0.025676778
76	0x3dd8bc54	0.10582796
77	0x3e43214e	0.19055673
78	0x3d57ee60	0.052717566
79	0xbd561ed8	-0.05227551
80	0x3daa6ec1	0.08321906
81	0xbc4462d5	-0.011986454
82	0x3a30c04b	0.0006742521
83	0x3d806d65	0.06270865
84	0x3cb6e23e	0.022324678
85	0xb8d6cf44	-0.000102429214
86	0x3715ecd4	8.936233e-06
87	0x3d0e5000	0.034744263
88	0x34ec3f8a	4.4004656e-07
89	0x3c26252a	0.010140697
90	0xbe157ae5	-0.14597662
91	0xbdfa5fc7	-0.12225299
92	0x3bbdde81	0.005794347
93	0x3e0bc572	0.13649538
94	0x3e3d0878	0.18460262
95	0x3da36802	0.07978822
96	0x3c12fe05	0.008971696
97	0xbd05c7e2	-0.032661326
98	0x3e57fccf	0.21092533
99	0xbe17221a	-0.14759102
100	0xbdc2f4ff	-0.095193855
101	0x3d9f8a06	0.07789998
102	0xbdd2060a	-0.10255058
103	0xb9f39122	-0.00046456704
104	0x3de5b467	0.1121605
105	0xbda8a3ed	-0.08234391
106	0x3d83748e	0.064187154
107	0x3d8e1041	0.06936694
108	0xbd9f2cf2	-0.077722445
109	0x35a8f280	1.2587552e-06
110	0xbe060d46	-0.13091001
111	0xbcc7d863	-0.024395173
112	0xbd8c8da4	-0.06862953
113	0x3da1b288	0.0789538
114	0x3e21af6b	0.15789573
115	0xbd1d911e	-0.038468473
116	0x3d72b8da	0.05925832
117	0xbd956c2d	-0.072960235
118	0xbe1d7051	-0.15374877
119	0xbdd84a80	-0.10561085
120	0xbdfddaf7	-0.1239528
121	0x3be1d462	0.006891773
122	0x3e36a486	0.17836198
123	0xb6b91e4c	-5.5169567e-06
124	0x3a66304b	0.0008781
125	0xb8095ae2	-3.2747987e-05
126	0xbca159cc	-0.019696139
127	0x3d3d68d8	0.046242565
128	0xb6d7af70	-6.427923e-06
129	0x3d9101b0	0.070804
130	0xbe4e8424	-0.20167595
131	0xbdf91103	-0.12161448
132	0x3e70b495	0.23506387
133	0xbe122328	-0.14271224
134	0x3cbd43ab	0.023103556
135	0x37341100	1.0732794e-05
136	0xbce409e7	-0.027836753
137	0x3de8a670	0.113598704
138	0xbd1cd3f5	-0.038288075
139	0xbe0543cf	-0.13014148
140	0x3e12b2d3	0.14326029
141	0xbd9e1841	-0.0771947
142	0x3df12488	0.11774546
143	0xb69abc1d	-4.611457e-06
144	0x3d12b81f	0.035820123
145	0x3cce149c	0.025156312
146	0x3c7b59e2	0.015341254
147	0xbdc29a22	-0.09502055
148	0xbd1a24b3	-0.037632655
149	0xb614055b	-2.2056836e-06
150	0xbdaa2986	-0.08308701
151	0xbe34fbf2	-0.17674235
152	0x3d512c7b	0.05106781
153	0x3e22342a	0.15840212
154	0xbcfb0328	-0.030641153
155	0x3ccb6cec	0.024832211
156	0x3c118b5d	0.008883324
157	0xbdc0ad5d	-0.094080664
158	0xbd29fa23	-0.041498315
159	0xbdf7b4be	-0.12095021
160	0xbda7f5ed	-0.082012035
161	0x3ab87d26	0.0014075383
162	0xbd88445e	-0.06653665
163	0xbca0bee5	-0.019622276
164	0xbc91d8be	-0.017803546
165	0x3c857b5b	0.016294172
166	0xbc8981c7	-0.016785515
167	0x3d0da8ae	0.034584694
168	0x3c3b29bf	0.011423527
169	0xb72c803a	-1.0281854e-05
170	0xbe78aaa7	-0.24283849
171	0xbde476a5	-0.11155442
172	0xbd9cf503	-0.0766392
173	0x3d50cb06	0.05097487
174	0xbe459f22	-0.19298986
175	0x38d83118	0.00010308827
176	0xbd6cc2f6	-0.057803117
177	0xbc83669d	-0.01604014
178	0x3e197f1d	0.14989896
179	0x3e6b3a76	0.2297152
180	0xbdfa8b47	-0.12233596
181	0x3a93fe23	0.0011290949
182	0xbdb8ee6d	-0.09029851
183	0xba5ded18	-0.00084658107
184	0x3dbeb360	0.09311557
185	0xbc5eeeba	-0.013606722
186	0x378f7fa0	1.7106358e-05
187	0xbd727073	-0.05918927
188	0x3725ff5e	9.894224e-06
189	0xbc0b110a	-0.008487949
190	0xbdaf6f6c	-0.08566174
191	0xbe6fe575	-0.23427375
192	0xbc996e46	-0.01872934
193	0x3ccc4c2b	0.024938663
194	0xbd15c208	-0.036561996
195	0xb746a628	-1.1840406e-05
196	0xbcc7db9f	-0.024396716
197	0x3df2b2b2	0.1185049
198	0xbe269ab7	-0.16269957
199	0x3e2691c4	0.16266543
200	0xbd681e43	-0.056669485
201	0x3cee8686	0.02911688
202	0xbb5e2c90	-0.0033901073
203	0xbd37d0c6	-0.044876836
204	0x3e172322	0.14759496
205	0xbcc590bc	-0.024116866
206	0x3b99dd2d	0.0046955557
207	0x3ac17b1f	0.0014761424
208	0x3d1b2d3a	0.03788493
209	0xbc800804	-0.015628822
210	0xbd8f54ce	-0.06998597
211	0x3d1694e9	0.036763106
212	0xbd1005aa	-0.03516165
213	0xbda71cfb	-0.081598245
214	0xbe0ad612	-0.13558224
215	0xbd7f64d7	-0.062352028
216	0x3dca0629	0.09864456
217	0x3d84de95	0.06487767
218	0xbd08810d	-0.033326197
219	0xbe2fc041	-0.17163183
220	0xbcf79d4f	-0.030226378
221	0x3cdadd51	0.02671686
222	0x3e038265	0.1284271
223	0x368b1249	4.1446515e-06
224	0xbe4e2881	-0.20132639
225	0x374e2788	1.2287761e-05
226	0x373080c3	1.0520397e-05
227	0xbd2d1bc8	-0.042262822
228	0x3d3f9138	0.04676935
229	0x3472d6d1	2.2616156e-07
230	0x3e0b88a5	0.13626345
231	0xbe0ebcd1	-0.13939215
232	0x3d100dfd	0.03516959
233	0xbe223433	-0.15840225
234	0xbe5fc135	-0.21851046
235	0xba717de1	-0.0009212178
236	0xbe1eb379	-0.15498151
237	0xbd36c8ae	-0.044624977
238	0xbc614abc	-0.013750728
239	0x3e482bed	0.19548006
240	0xbe165dd9	-0.14684238
241	0xbd85be17	-0.065303974
242	0xbe22d623	-0.15901999
243	0x3c6d030a	0.014466057
244	0x3e518a63	0.20462947
245	0xbc3fe920	-0.011713296
246	0x3660570c	3.342927e-06
247	0xbb4e4041	-0.0031471404
248	0xbc67ee60	-0.014155954
249	0xbca6699c	-0.02031403
250	0x3d9db701	0.07700921
251	0xbdd02550	-0.10163367
252	0x3dcc2687	0.09968286
253	0x3e666a1c	0.22501415
254	0x3d67f277	0.056627717
255	0xbab0a5c2	-0.0013477134

bias f4 [17]
0	0x3b48667c	0.0030578664
1	0x3e3a21ae	0.1817691
2	0x3ce4eb8e	0.027944352
3	0x3da74e1c	0.08169195
4	0x3e04101b	0.12896769
5	0x39b31bda	0.00034162292
6	0x3c5f26b5	0.013620068
7	0x3d9398d1	0.07206882
8	0xbd56caa0	-0.052439332
9	0x3bb85589	0.005625431
10	0xbbff4b43	-0.0077909543
11	0x3e2ea84e	0.1705639
12	0x3d984f30	0.07436979
13	0x3e2717b2	0.16317633
14	0xbdf415f7	-0.11918252
15	0x3d854ceb	0.065088116
16	0xbd535f1a	-0.051604368

weight f4 [25, 17]
0	0x3e790a00	0.24320221
1	0x3df33789	0.11875827
2	0x3d087c43	0.03332163
3	0xbe41e8f0	-0.18936515
4	0xbe233075	-0.15936454
5	0x3c95efe9	0.018302875
6	0xbdeca75c	-0.11555359
7	0xbddb42f0	-0.10706127
8	0xbb9261bb	-0.004467217
9	0xbe63fed2	-0.22265175
10	0x3e618c10	0.22026086
11	0xbe33b560	-0.17549658
12	0x3e1ada00	0.15122223
13	0x3c83128e	0.016000059
14	0x3dd14408	0.10218054
15	0xbdd299ba	-0.10283227
16	0xbe02f322	-0.1278806
17	0xbe313690	-0.1730597
18	0x3cd10714	0.02551607
19	0x3e25b453	0.1618207
20	0xbe4eec34	-0.20207292
21	0xbd030fb5	-0.0319974
22	0x3e20d670	0.15706801
23	0xbdd9f039	-0.10641522
24	0x3dd065a4	0.101756364
25	0x3cfe91fd	0.031075472
26	0x3e1aea77	0.15128504
27	0xbe04fbeb	-0.12986724
28	0x3de50785	0.11183075
29	0xbe5c2222	-0.21497396
30	0xbe51e951	-0.2049916
31	0xbde05fc4	-0.10955766
32	0x3df6fe16	0.12060182
33	0xbd6ec9f3	-0.058298063
34	0xbd49be6d	-0.04925387
35	0x3e61da34	0.22055894
36	0xbdd9bab2	-0.106313124
37	0xbca48dbd	-0.020087117
38	0xbdbdd27c	-0.09268662
39	0xbe5b5b66	-0.21421584
40	0x3d888510	0.06666005
41	0x3da68c0f	0.08132183
42	0xbda3ddde	-0.08001302
43	0x3e42b473	0.19014148
44	0x3c61c710	0.01378037
45	0x3e1d81ea	0.1538159
46	0x3d93588a	0.07194622
47	0x3e16ca18	0.1472553
48	0xbdc9f75f	-0.098616354
49	0xbd145e72	-0.036222883
50	0xbddee3a5	-0.108832635
51	0x3e58a37e	0.21156117
52	0xbe567251	-0.20942046
53	0xbe5580c0	-0.20849895
54	0xbe4640e0	-0.19360685
55	0x3e41dccd	0.18931885
56	0x3de7976b	0.113081776
57	0x3b8f81b1	0.004379474
58	0xbe61ede7	-0.22063409
59	0xbe40097a	-0.18753615
60	0xbdeb6990	-0.11494744
61	0xbce2a890	-0.027668267
62	0xbddb4b86	-0.10707764
63	0xbe3967e5	-0.18106039
64	0x3e6bd1f0	0.23029304
65	0x3e27fd46	0.1640521
66	0x3e44bb4b	0.19212072
67	0x3d085569	0.03328458
68	0xbe050fef	-0.1299436
69	0xbda6b6db	-0.08140346
70	0x3ddae178	0.10687536
71	0x3d54460e	0.05182462
72	0x3deb0e0a	0.11477287
73	0x3de28b25	0.11061696
74	0xbe329383	-0.17439084
75	0xbe3cab37	-0.18424688
76	0xbe412e95	-0.18865426
77	0xbe0fd759	-0.14046992
78	0xbe64c329	-0.22340073
79	0x3e5dcd6b	0.21660392
80	0x3e21997c	0.15781206
81	0xbe3b51e8	-0.18292964
82	0xbe45abf6	-0.19303879
83	0x3db2b643	0.0872617
84	0x3cbdd66c	0.023173533
85	0x3da3be33	0.07995262
86	0xbe728254	-0.23682529
87	0xbd6005f3	-0.054693174
88	0x3ddb96dc	0.107221335
89	0x3ddbf4a7	0.10740023
90	0xbd365f84	-0.044524685
91	0x3e76b9ce	0.24094316
92	0xbe232cc7	-0.1593505
93	0x3d810a85	0.063008346
94	0x3d1ed848	0.03878048
95	0x3e3e5a41	0.18589117
96	0x3d10ccbb	0.035351496
97	0xbe5b477f	-0.21413992
98	0x3dd8f1f3	0.10593023
99	0xbe1551b1	-0.14581944
100	0x3e48c720	0.1960721
101	0xbdddac90	-0.10823929
102	0xbe66c4c6	-0.22536
103	0x3e8b7694	0.27238905
104	0x3d74fa1d	0.05980884
105	0xbe7940f5	-0.24341185
106	0x3ddf9d43	0.10918667
107	0xbe85497f	-0.26032636
108	0xbe06979f	-0.13143776
109	0x3e342770	0.17593169
110	0xbdfc6562	-0.12324025
111	0x3e327f89	0.17431463
112	0x3c9766e6	0.018481683
113	0x3e70f42b	0.23530643
114	0xbe6eeb86	-0.23332033
115	0x3e529e80	0.20568275
116	0xbe25cfa1	-0.16192485
117	0x3d3b3df7	0.04571339
118	0xbe48f492	-0.19624546
119	0x3e792573	0.24330692
120	0x3e6fafb6	0.23406872
121	0x3dbc2ded	0.09188447
122	0xbe74084d	-0.23831291
123	0x3e3376f9	0.17525853
124	0xbe6159af	-0.22006868
125	0x3c88e12a	0.01670893
126	0xbe3636f0	-0.17794394
127	0x3da665b5	0.08124868
128	0xbe57d697	-0.21077953
129	0xbe5ee104	-0.21765524
130	0x3da14a88	0.07875544
131	0xbda09d8b	-0.07842549
132	0xbdfab28a	-0.12241085
133	0x3e39be8e	0.18139097
134	0xbcc75271	-0.024331303
135	0x3e75948f	0.23982452
136	0xbe3eee4d	-0.18645592
137	0xbe5feef0	-0.21868491
138	0x3dc1242b	0.094307266
139	0x3e4f0464	0.20216519
140	0x3e0f828c	0.14014643
141	0xbe60f809	-0.21969618
142	0xbbb8c344	-0.005638512
143	0xbe318fb6	-0.17339978
144	0x3d0b2df8	0.033979386
145	0xbb895096	-0.004190515
146	0x3e6895ac	0.22713345
147	0xbe378600	-0.1792221
148	0xbca4a5a0	-0.020098507
149	0xbe5c86d6	-0.21535811
150	0xbe5ad75d	-0.21371217
151	0x3dc80c16	0.0976793
152	0xbe21e795	-0.15810998
153	0xbe66ccd7	-0.22539078
154	0x3d129fa6	0.035796784
155	0x3d04093c	0.03223537
156	0x3e16aa2a	0.1471335
157	0x3e089b10	0.13340402
158	0x3d9cdd21	0.076593645
159	0xbcc8d49c	-0.024515443
160	0xbe14ae5c	-0.14519638
161	0x3d026088	0.03183034
162	0x3dcd6b65	0.100302495
163	0xbdc83652	-0.09775986
164	0x3e4824c1	0.1954527
165	0x3d1e8cb0	0.03870839
166	0xbd7aa3ba	-0.061191298
167	0x3e5c5b73	0.2151926
168	0x3dee577a	0.116377786
169	0x3e165c7e	0.1468372
170	0xbe1dc7e4	-0.15408283
171	0x3e2b4096	0.16723856
172	0xbe0dd206	-0.13849649
173	0xbd933221	-0.07187296
174	0x3c3248a5	0.010881578
175	0x3e238c7d	0.15971561
176	0x3e254023	0.16137747
177	0xbe5315a2	-0.20613721
178	0xbe02354c	-0.12715644
179	0xbe1ff194	-0.15619498
180	0xbc9a081d	-0.018802697
181	0x3e64c246	0.22339734
182	0xbe6513b6	-0.223708
183	0xbe039b1a	-0.12852135
184	0xbaeeb0f8	-0.00182107
185	0xbe1adbd1	-0.15122916
186	0x3e2dd44e	0.16975519
187	0xbdb0825f	-0.08618616
188	0xbd2232ba	-0.039599158
189	0xbe6dbca7	-0.23216496
190	0x3d9853fb	0.07437893
191	0xbe5529ae	-0.20816681
192	0x3e4a1f8d	0.19738598
193	0x3c3ab3dc	0.011395421
194	0x3e1e0639	0.15432061
195	0xbd8fd9db	-0.070239745
196	0xbd91cc12	-0.071190014
197	0x3db14809	0.08656318
198	0x3dc4e54a	0.09614046
199	0x3e3c9bf8	0.18418872
200	0x3e6e5d72	0.23277834
201	0x3e4cda1f	0.20005082
202	0x3dd4ff44	0.104002506
203	0x3e661ee1	0.22472717
204	0xbe20d59d	-0.15706487
205	0xbe13800f	-0.14404319
206	0x3e5e480f	0.21707176
207	0x3d8ce1e2	0.06879021
208	0xbc6a500a	-0.014301309
209	0xbe62a867	-0.22134553
210	0x3b71c0fa	0.0036888705
211	0x3ddf49e2	0.10902764
212	0xbda3f1c7	-0.080051
213	0xbe05973b	-0.13045971
214	0xbc9728b2	-0.018452022
215	0xbe6342ad	-0.22193404
216	0xbe73b7c7	-0.23800574
217	0x3e22bc6b	0.15892188
218	0xbe301df2	-0.17198923
219	0x3de17cc0	0.11010122
220	0xbe4e78f7	-0.20163332
221	0xbe0506f4	-0.12990934
222	0xbbd6afe4	-0.0065517295
223	0xbd996dff	-0.07491683
224	0xbe1afdce	-0.15135881
225	0x3e3af7a2	0.18258527
226	0xbe0eb37f	-0.1393566
227	0xbd0983d9	-0.033573005
228	0x3e695aaa	0.22788492
229	0xbe50f510	-0.20405984
230	0x3da4fb0b	0.08055695
231	0xbe34ff03	-0.17675404
232	0x3e6afce2	0.2294803
233	0x3dfeab67	0.12435036
234	0x3d32f2b8	0.043688506
235	0x3e06c270	0.1316011
236	0x3dba5f2e	0.09100185
237	0xbd95e766	-0.073195264
238	0xbdf2c890	-0.118546605
239	0xbe2e6aab	-0.17032878
240	0xbdef9ce6	-0.11699848
241	0x3dc81678	0.097699106
242	0x3dd6bc9d	0.10485194
243	0xbe2f0aee	-0.17094013
244	0xbe03d8d3	-0.1287568
245	0x3d7060d9	0.05868611
246	0x3d83e4f8	0.06440157
247	0xbd1ed9a1	-0.038781766
248	0xbe541a93	-0.20713262
249	0xbde3e5ce	-0.11127816
250	0xbe06aad7	-0.13151108
251	0x3e58cc82	0.21171764
252	0x3dece8d9	0.1156785
253	0x3d93890a	0.072038725
254	0x3dca738f	0.09885322
255	0x3d57b26d	0.052660394

bias f4 [25]
0	0xbd894af4	-0.06703749
1	0x3d77ae9f	0.060469266
2	0x3b6d881f	0.0036244465
3	0x3d8fd023	0.07022121
4	0xbc841853	-0.01612488
5	0xb96d1aaf	-0.00022612022
6	0x3ce9a028	0.028518751
7	0xbd5b7930	-0.05358237
8	0xbdd58c1f	-0.104271166
9	0xbc4a2546	-0.012337988
10	0x3bd945d3	0.006630638
11	0x3c5e7f5d	0.01358017
12	0xbd9b281a	-0.07576008
13	0xbb42de8c	-0.00297347
14	0xbc9721bc	-0.018448703
15	0x3de1d402	0.110267654
16	0xb83bff64	-4.4822125e-05
17	0xbd483cce	-0.048886113
18	0x3d1e7600	0.038686752
19	0xbdd5ed4b	-0.10445651
20	0xbcea25e6	-0.028582525
21	0xbd885e30	-0.0665859
22	0x3d086899	0.033302877
23	0xbcdd097b	-0.02698206
24	0xbc388703	-0.011262658

weight f4 [25]
0	0x3f78b981	0.97158056
1	0x3f787c69	0.97064835
2	0x3f7cf544	0.98811746
3	0x3f6f872b	0.93565625
4	0x3f7bca4c	0.98355556
5	0x3f6dda4f	0.9291124
6	0x3f847638	1.0348577
7	0x3f696878	0.9117503
8	0x3f77825a	0.96683276
9	0x3f78514d	0.96999055
10	0x3f79874d	0.9747208
11	0x3f78308e	0.9694909
12	0x3f787e7b	0.97067994
13	0x3f7b09fe	0.9806212
14	0x3f74ed13	0.95674247
15	0x3f75f424	0.96075654
16	0x3f7262b6	0.9468187
17	0x3f77675e	0.966421
18	0x3f7049cf	0.9386262
19	0x3f826276	1.0186298
20	0x3f739518	0.95149374
21	0x3f6d8d9e	0.92794216
22	0x3f734d34	0.9503968
23	0x3f786048	0.97021914
24	0x3f80839f	1.0040168

bias f4 [25]
0	0xbce3e02a	-0.02781685
1	0xbcdba4aa	-0.026811916
2	0xbd4793a7	-0.048724797
3	0xbcc27450	-0.023737103
4	0xbd09b503	-0.03361989
5	0xbcc34d38	-0.023840532
6	0xbd940b8b	-0.07228764
7	0xbce9e09a	-0.028549481
8	0xbd4a9cfa	-0.04946611
9	0xbc74d539	-0.014943414
10	0xbcd16f26	-0.025565695
11	0xbce13570	-0.027491301
12	0xbcbf5f71	-0.02336094
13	0xbd3a68af	-0.04550999
14	0xbcb04a92	-0.021519933
15	0xbcc9f75e	-0.024654087
16	0xbcb51ed0	-0.02210942
17	0xbcb0fb87	-0.021604313
18	0xbcc40822	-0.02392966
19	0xbd492717	-0.049109545
20	0xbd07835a	-0.03308425
21	0xbc66f778	-0.014097087
22	0xbc2ef7da	-0.01067921
23	0xbd0f1a82	-0.03493739
24	0xbd69d109	-0.057084117

running_mean f4 [25]
0	0xbe69283c	-0.22769254
1	0xbe03e76a	-0.12881246
2	0x3dceff45	0.101072825
3	0xbddbbe6f	-0.10729682
4	0xbe99499b	-0.2993897
5	0x3d9cab2e	0.076498374
6	0xbd8a1243	-0.067417644
7	0xbcde74ba	-0.027155269
8	0xbf045755	-0.5169576
9	0x3eb2150d	0.34781685
10	0xbe80a2b7	-0.25124142
11	0x3ee2b8e2	0.4428168
12	0xbf075456	-0.5286306
13	0x3da4a08e	0.08038436
14	0xbe5c3e00	-0.21508026
15	0x3e3623f8	0.17787158
16	0x3ec32f38	0.38121963
17	0xbe5949b0	-0.21219516
18	0xbc9a6ba9	-0.018850164
19	0xbf745e08	-0.9545598
20	0x3dafcd33	0.085840605
21	0x3e3fb413	0.18721037
22	0xbe5e227a	-0.2169284
23	0x3d537863	0.05162848
24	0x3f1197db	0.5687234

running_var f4 [25]
0	0x3185d8e3	3.8954666e-09
1	0x2f8f1f65	2.6033856e-10
2	0x32c7f61f	2.3278572e-08
3	0x2efb78c6	1.1435612e-10
4	0x3187ccc8	3.952298e-09
5	0x2e188e77	3.4687333e-11
6	0x33968b85	7.010298e-08
7	0x30f0dde0	1.7525359e-09
8	0x320e2e4f	8.276017e-09
9	0x308920de	9.977403e-10
10	0x30972f75	1.1000184e-09
11	0x311fcd83	2.3254365e-09
12	0x30f72c1c	1.7984152e-09
13	0x32ec4629	2.7505921e-08
14	0x31d0c52c	6.0760126e-09
15	0x31b28298	5.1953286e-09
16	0x2f92e3f8	2.6719227e-10
17	0x31665e15	3.3522884e-09
18	0x2fce2592	3.7497877e-10
19	0x332c076e	4.0053628e-08
20	0x31acbae8	5.0271076e-09
21	0x2ff32e0b	4.4234158e-10
22	0x2e44d7dc	4.4756962e-11
23	0x319ffd1c	4.6562842e-09
24	0x331e044b	3.6791146e-08

weight f4 [40, 25]
0	0x3cfc5a1a	0.030804683
1	0xbda9fd77	-0.08300298
2	0x3e1a073b	0.1504182
3	0xbe379758	-0.17928827
4	0xbe01cb91	-0.1267531
5	0xbc34dd98	-0.01103916
6	0x3d871cd9	0.06597299
7	0x3e314fc5	0.17315586
8	0x3e08d737	0.13363348
9	0xbcd6168a	-0.026133794
10	0x3d697476	0.05699583
11	0x3dea561f	0.114422075
12	0xbc6845ba	-0.01417678
13	0x3ddd5253	0.10806718
14	0xbcbe08b3	-0.023197507
15	0x3dbd90f4	0.09256163
16	0x3e11b7d3	0.1423028
17	0xbdf6376e	-0.12022291
18	0xbdfd088b	-0.12355145
19	0x3d8d334d	0.068945505
20	0x3e38beca	0.1804153
21	0x3dafe26e	0.0858811
22	0xbd2977f6	-0.04137417
23	0xba8fd9c4	-0.0010974933
24	0x3dacaf15	0.08431832
25	0x3e198f22	0.14996007
26	0x3cef5a68	0.029217914
27	0x3d7df18e	0.061997943
28	0x3d24584e	0.040123276
29	0x3cb4cf00	0.022071362
30	0x3df5b6e1	0.11997772
31	0x3e4952a5	0.19660433
32	0xbd3a1f5f	-0.045440074
33	0x3e25e36b	0.16200034
34	0xbd4f4af9	-0.05060861
35	0x3d88633a	0.06659551
36	0x3e3286bd	0.17434211
37	0x3e17015e	0.14746615
38	0x3e3e89b2	0.18607214
39	0x3d2fb43a	0.042896487
40	0xbdc56850	-0.09639037
41	0xbddc3d0b	-0.107538305
42	0xbde3a638	-0.11115688
43	0xbe045ce1	-0.12926055
44	0x3d6d8597	0.05798873
45	0xbd9a54ec	-0.07535729
46	0xbdbcb2dd	-0.09213803
47	0xbdf75945	-0.12077574
48	0xbd50211d	-0.05081283
49	0x3dbcdf2f	0.092222564
50	0xbde43ea7	-0.111447625
51	0xbe17d839	-0.14828576
52	0x3e188d85	0.14897735
53	0xbe069d4c	-0.13145941
54	0xbe07b897	-0.13254009
55	0xbdcfc00b	-0.10144051
56	0xbcbfabf6	-0.023397427
57	0xbe134005	-0.1437989
58	0x3e3788fd	0.1792335
59	0x3e344967	0.17606126
60	0xbc3e1f5c	-0.011604156
61	0xbddeadc7	-0.10872989
62	0x3e3328c9	0.17496027
63	0xbdbe423e	-0.092899784
64	0xbe16dde8	-0.14733088
65	0xbe413b34	-0.1887024
66	0x3e2c1bab	0.1680743
67	0x3d1f43a1	0.038882855
68	0x3d3c1a06	0.045923255
69	0xbe1cdef8	-0.15319431
70	0xbe4ca41e	-0.1998448
71	0x3dcc322e	0.099705085
72	0x3d44f8b0	0.04808873
73	0x3e146187	0.14490329
74	0xbe157f0b	-0.14599244
75	0x3ddf8dab	0.10915693
76	0x3d542f8e	0.051803164
77	0x3d50c1ef	0.0509662
78	0x3d5efb1f	0.054438706
79	0x3e39c8f0	0.18143058
80	0x3c95aae5	0.018269965
81	0x3d02576c	0.031821653
82	0xbd85f7cb	-0.065414034
83	0xbca75fb9	-0.020431386
84	0xbe2e206d	-0.17004557
85	0x3d16be6c	0.036802694
86	0x3dbf0110	0.093263745
87	0x3e3381d5	0.17529996
88	0xbdc238bd	-0.09483478
89	0xbbad993a	-0.005297807
90	0xbe0817a5	-0.1329027
91	0xbe363ad6	-0.17795882
92	0x3e3335b0	0.17500949
93	0xbe335471	-0.1751268
94	0x3da561d0	0.08075297
95	0x3d8f84fc	0.07007787
96	0x3e2111a2	0.15729383
97	0x3cf7ca80	0.030247927
98	0xbd7f30c2	-0.06230236
99	0x3e1124b4	0.14174157
100	0xbcbc477d	-0.022983307
101	0xbe14ca97	-0.14530407
102	0x3d262fbb	0.040572863
103	0x3d3e1d61	0.046414737
104	0xbe52bbde	-0.20579478
105	0xbe6475d9	-0.2231058
106	0xbdbc7c8d	-0.09203444
107	0xbe12083f	-0.14260958
108	0x3d4db45f	0.050220843
109	0xbe12e882	-0.14346507
110	0x3dde1f73	0.10845842
111	0xbdd64918	-0.1046316
112	0xbe367306	-0.17817315
113	0x3df11f5f	0.11773562
114	0xbe10d3c0	-0.14143276
115	0xbe31c2a6	-0.17359409
116	0xbdd920f6	-0.1060199
117	0xbe1e5693	-0.15462713
118	0xbdcf2a8f	-0.10115539
119	0xbc627452	-0.013821678
120	0x3ddaf000	0.106903076
121	0x3c6859a7	0.014181531
122	0xbe0c0eee	-0.1367757
123	0x3d4a2b37	0.04935762
124	0xbc1acbd1	-0.009448008
125	0xbd8120b7	-0.06305068
126	0xbe2acfbf	-0.16680811
127	0x3d5afd89	0.053464446
128	0xbe42fd4a	-0.19041935
129	0x3defb56f	0.117045276
130	0xbcd802d7	-0.026368542
131	0xbcb0f8f9	-0.021603094
132	0xbdf733e0	-0.12070441
133	0x3e2b185e	0.16708514
134	0x3e01e790	0.1268599
135	0xbe032f18	-0.12810934
136	0xbdfc4eaf	-0.12319695
137	0x3daf88a8	0.08570987
138	0xbd6b21b7	-0.0574052
139	0x3da1ac29	0.07894165
140	0xbe07e398	-0.13270414
141	0xbd9da96e	-0.07698332
142	0xbc70744e	-0.014676167
143	0x3c847412	0.016168628
144	0x3e1502cc	0.14551848
145	0xbd0cbc48	-0.034359246
146	0xbe1842aa	-0.1486918
147	0xbe0dae92	-0.13836125
148	0x3d8f0e06	0.06985097
149	0x3d143279	0.036180947
150	0x3be49faa	0.0069770413
151	0x3e0f7f5c	0.14013427
152	0x3dc7df71	0.09759415
153	0x3e2ef900	0.17087173
154	0x3d99738f	0.07492744
155	0x3d3e0f37	0.04640123
156	0xbb58b174	-0.0033064755
157	0x3e30c686	0.1726323
158	0xbe0fc5fc	-0.14040369
159	0xbddaec3a	-0.10689588
160	0x3d1437b1	0.036185924
161	0x3e3fcb05	0.1872979
162	0xbe1ca00e	-0.15295431
163	0xbd8ceb8a	-0.06880863
164	0x3e3f6ef0	0.18694663
165	0x3d6f22de	0.05838286
166	0xbc607e9d	-0.013702062
167	0x3dd62f1b	0.104582034
168	0xbd0f4e0a	-0.034986533
169	0x3e2af0d4	0.16693431
170	0x3e497d25	0.19676645
171	0x3cbc74bd	0.023004884
172	0xbe1ac0ce	-0.15112612
173	0x3d66244b	0.056186955
174	0x3d583466	0.052784346
175	0x3d0e7706	0.03478148
176	0x3db59a1b	0.08867284
177	0x3e2168a6	0.15762576
178	0x3dc3c582	0.09559156
179	0x3e32410f	0.1740763
180	0x3d3eab61	0.04655016
181	0x3e78db94	0.24302512
182	0x3b3d8692	0.0028919321
183	0xbe0e2607	-0.13881694
184	0xbe1b3ab0	-0.15159106
185	0xbe2dc2b9	-0.16968812
186	0x3df51fd2	0.1196896
187	0xbcce994e	-0.025219586
188	0x3d985476	0.07437985
189	0x3e0da32d	0.13831778
190	0x3e39bc20	0.1813817
191	0xbe139373	-0.14411716
192	0x3daad11b	0.08340665
193	0x3dad3b46	0.08458571
194	0xbe1a9431	-0.15095593
195	0x3c3dfaf3	0.0115954755
196	0xbdaede01	-0.08538438
197	0x3d2e6eeb	0.04258625
198	0xbc538ee0	-0.012912482
199	0xbd1cbb73	-0.038264703
200	0x3e3d7eec	0.18505448
201	0xbe18ea5a	-0.14933148
202	0xbd455c29	-0.048183594
203	0xbd5b46ed	-0.053534437
204	0xbc906b0a	-0.017629165
205	0xbd1cc815	-0.03827675
206	0x3e34097c	0.17581743
207	0x3e1d6952	0.15372208
208	0x3cbc4150	0.022980362
209	0xbe0c8162	-0.1372123
210	0xbc756f20	-0.014980108
211	0xbe2d0873	-0.16897754
212	0xbdba6b98	-0.09102553
213	0x3e354ea5	0.17705782
214	0x3e106398	0.14100492
215	0x3dbd9155	0.092562355
216	0xbc8687f2	-0.016422246
217	0x3e2da415	0.16957124
218	0x3dd5f032	0.10446204
219	0x3d3693a5	0.0445744
220	0xbd23ae32	-0.039961047
221	0x3d9cc5fe	0.076549515
222	0xbda415ef	-0.08011996
223	0x3e73bd72	0.23802736
224	0x3e24f5be	0.16109368
225	0x3e23c393	0.15992574
226	0x3e29d83f	0.16586398
227	0xbe33a491	-0.17543246
228	0x3d825097	0.063630275
229	0x3dcba729	0.09943993
230	0xbe00e53e	-0.12587449
231	0x3da7237f	0.08161067
232	0xbe35eb59	-0.1776556
233	0x3e218d63	0.15776591
234	0x3cd08d46	0.02545799
235	0x3d6cc371	0.057803575
236	0xbd8868bf	-0.06660604
237	0x3d94b93c	0.07261893
238	0xbdc30947	-0.09523254
239	0x3dc6bba5	0.09703759
240	0x3e36894f	0.17825817
241	0x3be9737d	0.007124363
242	0x3dfeb21d	0.12436316
243	0x3de664f6	0.112497255
244	0x3d5cae81	0.053877357
245	0xbd95cd03	-0.073144935
246	0x3b28d644	0.0025762478
247	0x3e0681cd	0.13135453
248	0x3dab79bc	0.08372828
249	0xbdc5efcb	-0.096648775
250	0xbdabddec	-0.083919376
251	0xbe16861c	-0.14699596
252	0x3e59c93c	0.21268171
253	0xbda1e35b	-0.07904693
254	0x3e0f04b8	0.13966644
255	0xbb5ade8a	-0.0033396804
